Assets/Scripts/AI/PPO/Agent.onnx (onnx, 83812 bytes, 10 tensors)

network_body.observation_encoder.processors.0.normalizer.running_mean f4 [21]
000000 19 87 9a bc c4 e7 29 bf 67 54 31 3f 40 8d 1e 3a
       -0.018863248 -0.6636927 0.6926941 0.00060482696
000010 ed 08 9c bd e5 32 6e 3f 8a 5e 6b 3f cb ce 6e 3f
       -0.0761889 0.9304641 0.9194113 0.9328429
000020 a4 1d 75 3f c0 c8 78 3f a2 ff 76 3f ea ea 71 3f
       0.95748353 0.9718132 0.96483815 0.94499075
000030 33 c3 6c 3f 55 2d 6f 3f 4d 6d 6b 3f ee dc 69 3f
       0.9248535 0.93428546 0.91963655 0.91352737
000040 35 e1 6b 3f dc 42 6f 3f 6b bc 6a 3f c7 a3 67 3f
       0.92140514 0.93461394 0.91693753 0.9048428
000050 d6 bc 69 3f
       0.91303766

network_body._body_endoder.seq_layers.0.weight f4 [128, 21]
000000 e4 02 f0 bc d8 b1 12 be c7 35 fa 3e 91 c3 88 bd
       -0.029298253 -0.14325655 0.48869154 -0.06677926
000010 d6 f0 5c be 57 27 05 3e 6d 7c 66 bd de 72 75 3e
       -0.21576247 0.13003288 -0.056271005 0.239696
000020 1d 03 58 be 08 0f af be 34 9e f6 bc a5 3a 8a bd
       -0.21094938 -0.34191155 -0.030104734 -0.06749467
000030 a4 61 91 3e 3f 01 24 3f 09 5b 6d be 3f 8e dc 3d
       0.28394806 0.640644 -0.23179258 0.10769319
000040 e8 6a a8 be 5b e6 4f 3e 44 b6 dc 3e 29 22 e5 bd
       -0.32894063 0.20302717 0.43107808 -0.11188156
000050 1f 1a 07 3f f8 ac 14 bf 89 d2 ba be 28 a4 53 3e
       0.5277423 -0.5807643 -0.3648875 0.2066809
000060 da 1c 97 bd be 3b 85 be 5f ce e9 3d 85 17 44 bc
       -0.0737855 -0.26022142 0.11416315 -0.011968498
000070 f6 e2 c5 be 87 87 eb bd af 06 ad be 7a d7 15 3d
       -0.3864972 -0.11500459 -0.33794162 0.036582448
000080 44 ec 91 3d 16 d4 d4 bd c4 56 05 3e ed c8 8f bc
       0.07125142 -0.10392015 0.1302138 -0.017551864
000090 7c 2b 10 3f 89 c8 d5 3d 77 1f af bd db 8f 8b be
       0.5631635 0.1043864 -0.08550923 -0.2725819
0000a0 79 70 0e be 4f 69 db be 07 5b 85 3e 21 51 b1 3c
       -0.13910092 -0.42853782 0.2604601 0.02164513
0000b0 a9 7b 80 be 1d 63 df 3e 6b 06 6e be 14 08 73 bd
       -0.25094345 0.43630305 -0.23244636 -0.059333876
0000c0 14 79 4c bd 97 1e 1c be 7c 61 b5 bd 28 55 7b 3e
       -0.049920157 -0.15246044 -0.08856484 0.24544203
0000d0 83 56 fd be 2c 12 70 be 95 a7 72 bd 54 5d 09 3e
       -0.49480066 -0.23444432 -0.05924185 0.13414508
0000e0 76 e1 50 3e 7f 41 94 3e 1a 97 87 3d 24 f6 d6 bd
       0.20398507 0.2895622 0.06620617 -0.10496166
0000f0 0a 59 10 be 68 95 34 3d f1 dd 77 bd 46 7b 37 3e
       -0.14096466 0.044087797 -0.060514394 0.17918119
000100 5b 23 fb be df c0 eb 3d d3 be a8 be bd e3 04 bf
       -0.49050412 0.115113966 -0.32958087 -0.5191
000110 fc c1 03 be e6 0e 21 3c 2e 8a cf bd bb ad f6 bd
       -0.12866968 0.009830212 -0.101337776 -0.12044855
000120 97 89 7f be 24 5f a6 3b a7 f4 cb bc f7 d8 af bd
       -0.2495483 0.0050772596 -0.024896933 -0.08586305
000130 87 84 9a 3d 39 ac 00 be 3d e5 9c 3d 0e b2 54 3d
       0.07544809 -0.12565698 0.07660911 0.05192762
000140 1e 64 61 bd 48 09 0c bd 9f 4e 1f 3e 4c ca 53 3e
       -0.05502712 -0.03418854 0.15557335 0.20682639
000150 21 83 3c be bc 95 14 be 29 d2 f0 3d 64 96 a6 bd
       -0.18409397 -0.14510244 0.11758835 -0.081341535
000160 95 d7 92 bd 10 e2 b9 3e c3 d9 8b be ee 73 1e be
       -0.07170025 0.36305285 -0.27314577 -0.15473911
000170 a8 91 31 3e 22 10 67 3e 81 83 46 be cf e8 83 be
       0.1734072 0.22564748 -0.19386102 -0.25763556
000180 4c 18 fe 3c a4 d9 1b bd 11 8f 7f 3e 5a 4f dd bd
       0.031017445 -0.038049355 0.24956919 -0.10806151
000190 74 22 49 3e 85 5a 44 be 90 ee b0 3e 55 a7 c5 bd
       0.19642049 -0.19175155 0.3455701 -0.09651057
0001a0 85 b4 99 3d 89 e6 f9 be 50 40 65 3e ff a4 05 be
       0.075051345 -0.48808697 0.22387815 -0.13051222
0001b0 07 b9 11 3f 5f bd d9 be 72 7a a8 bd 0c a3 5d be
       0.56922954 -0.4252729 -0.082264796 -0.21644229
0001c0 db a1 e9 bd 1b ee 21 be e0 25 73 3e 68 33 15 bd
       -0.114078246 -0.15813486 0.23744917 -0.036425978
0001d0 45 0e ee be 8c 49 a7 bd c3 65 5a be 10 b0 d1 bc
       -0.46495262 -0.08168325 -0.21327882 -0.025596648
0001e0 ee 79 fe 3e 48 33 49 3e 4c b1 03 be 92 01 41 3d
       0.497024 0.19648468 -0.12860602 0.04712064
0001f0 a1 b9 07 bf 25 1d 06 3e 83 a7 d5 be 68 ea db 3e
       -0.5301762 0.13097055 -0.41729364 0.42952275
000200 2c 29 a5 3c 9f d0 38 be f4 f5 87 be b9 d6 aa be
       0.020161234 -0.18048333 -0.26554835 -0.33366945
000210 61 83 d6 3d 38 d0 1f 3e be 3c bd 3e 85 09 15 be
       0.10474277 0.15606773 0.36960405 -0.14554413
000220 0d 8a b9 bc 4d b8 66 be 81 74 90 bd 6e 80 dd 3c
       -0.022648836 -0.22531243 -0.07053471 0.02703878
000230 67 2e 86 bc 90 ff 11 3e 05 ff 1d 3e ec 73 bf 3c
       -0.016379548 0.14257646 0.15429313 0.023370706
000240 d5 fe 81 be cd e4 8d 3d 4c d8 00 3e 2f 40 a9 bd
       -0.25389734 0.06928406 0.1258251 -0.08264195
000250 8e f4 a4 be 7e f7 d2 bd da b2 c1 bd 35 50 02 be
       -0.3221783 -0.10301112 -0.09457941 -0.12725909
000260 08 14 ab be 95 ba ce bd 70 ef c9 3d 18 06 01 3f
       -0.3341372 -0.100941814 0.09860122 0.50399923
000270 3d c4 60 3e b2 b2 8c be 02 87 ff be 76 5b 91 bd
       0.21949859 -0.27480084 -0.4990769 -0.07097523
000280 c5 af a6 bd dd e0 a0 bd 01 79 7a 3d a0 3c 4b bd
       -0.08138994 -0.07855389 0.061150555 -0.049618363
000290 28 87 8a bd 0a be da 3d a6 8d 7c bd ef b7 18 be
       -0.0676406 0.10680778 -0.061658524 -0.14913915
0002a0 a2 0a e1 3d 67 f6 a6 be c3 66 72 bd 5f 95 84 bd
       0.10988356 -0.32609865 -0.059180032 -0.06473803
0002b0 12 cf 67 be 95 e9 3a bd 33 fc 62 3e 6e a9 d1 bd
       -0.22637585 -0.045632917 0.22166519 -0.10237394
0002c0 64 dc 52 be ac 76 9e 3e cd 6c a1 3c 95 49 8f 3e
       -0.20591885 0.30949914 0.0197052 0.27985826
0002d0 0c a5 c1 be fe 9e 19 3e 1a 87 58 3e 4e 18 e6 be
       -0.37821233 0.15002057 0.21145287 -0.44940418
0002e0 19 8b 96 bd 77 ab 6e bd 6d 11 c1 3e fa 56 77 3e
       -0.073507495 -0.05826899 0.37708607 0.24154273
0002f0 63 8d 8c be 2f 23 66 3e 1a 9d 16 3f 9d 16 d6 bd
       -0.2745162 0.22474359 0.5883347 -0.10453532
000300 6e 29 19 3e 24 b4 24 bf 9d a9 f6 bd d7 bf 5f 3e
       0.1495721 -0.6433737 -0.1204407 0.21850525
000310 f8 01 6c 3e e4 88 c4 3d 09 b7 5e be 95 e3 39 3d
       0.23047626 0.09596422 -0.2174951 0.045383055
000320 4b d1 bd bc 4c 12 85 3e 52 e6 f8 bd d4 7b 41 3e
       -0.023171088 0.25990522 -0.12153305 0.18894893
000330 61 aa 2d bd 59 2d 92 3e 8f d0 49 be ae 58 86 3e
       -0.042398814 0.28550223 -0.19708465 0.26239532
000340 75 84 64 3d 79 68 66 bd e8 66 3d 3e 59 c9 12 bf
       0.055790383 -0.056251977 0.18496287 -0.5733848
000350 58 4c 3c bd c0 7e 59 3d 38 a7 d0 3c 4c 36 14 3e
       -0.045971245 0.053099394 0.025470361 0.14473838
000360 ac 64 ca be 93 27 15 bd c4 fd cc bd 23 f6 30 3e
       -0.39529932 -0.036414694 -0.100093395 0.17281394
000370 de e5 0c bd 63 ee 92 be 6b f3 c1 3e 92 28 bb 3d
       -0.034398906 -0.286975 0.37881026 0.091385975
000380 8f c6 23 3c 64 58 3c 3e 6b c5 0e bd 71 12 c4 3c
       0.0099960705 0.18393093 -0.03485624 0.023934575
000390 31 3c 17 3d 5d 2f 17 be 1a dc 3f be 41 38 03 3f
       0.036922637 -0.14764161 -0.18736306 0.5125771
0003a0 e3 24 7c 3e 3f c5 1b be 51 ad 44 be cc 03 e8 bd
       0.24623446 -0.15211962 -0.1920674 -0.11328849
0003b0 1b 92 f4 3c fc f2 ef 3c a7 fb 42 3d 7f ef 1b 3e
       0.029854825 0.029290669 0.047603276 0.1522808
0003c0 76 ed 29 be 2d a5 d5 bd 34 39 52 be ed a6 c3 3d
       -0.1659449 -0.104318954 -0.20529634 0.09553323
0003d0 e9 0a d2 bc 26 bc 97 3e a1 81 30 be 89 4e 27 bd
       -0.025639968 0.29635733 -0.1723695 -0.04084638
0003e0 10 2c 8f 3c fc 05 2b 3d 47 67 30 be 01 bf 5e bd
       0.017477065 0.041753754 -0.17226897 -0.054381374
0003f0 24 7e 8e be f0 dd de 3b 9c 76 00 3e b2 56 77 be
       -0.27830613 0.0068013594 0.12545246 -0.24154165

network_body._body_endoder.seq_layers.0.bias f4 [128]
000000 7c 2d d4 3d c0 1c da 3d 2b b5 ad 3c 83 01 cb 3d
       0.10360238 0.10650015 0.021204552 0.09912398
000010 b9 33 45 bc 23 04 91 3d f1 3d 7f 3d 83 63 85 3d
       -0.012036257 0.07080867 0.06231493 0.06513121
000020 5e 2a 5c 3d 15 71 95 bc 64 e5 ae 3d dd 72 41 bc
       0.053751342 -0.018242398 0.085398465 -0.011807171
000030 3c 92 fc 3d f0 ac e3 3d 40 0a 98 3c f8 64 bc 3d
       0.123325795 0.111169696 0.018559575 0.09198946
000040 f9 10 ce 3d a2 de 2e bd 68 e7 10 bd 03 21 9f 3d
       0.10061831 -0.042692788 -0.035376936 0.07769968
000050 32 75 9a 3c 8c 5b 42 3d 74 e9 1f bd 21 61 e1 3d
       0.018854711 0.047450587 -0.039040998 0.11004854
000060 09 e6 6b 3d 8a 1e 33 bd f0 6a ae 3d ff 89 ee 3a
       0.057592425 -0.043730296 0.085164905 0.0018199085
000070 4a e7 59 3d 69 be d2 bb 50 e4 68 bd fa 10 35 bc
       0.05319909 -0.00643139 -0.05685836 -0.011051411
000080 3a 3f 4d bc 6e 00 2f 3d 1f 77 d3 3d 7c 7d 0c 3d
       -0.012527281 0.04272502 0.10325455 0.03429936
000090 0f dc bc 3c 6e 39 84 bc 71 91 40 bd 7f b0 86 bd
       0.02305415 -0.016140666 -0.047013704 -0.06576633
0000a0 5c 9c bd 3d 10 d7 b0 3d da 8d aa 3c 5c fc 2e 3d
       0.09258339 0.0863477 0.020819593 0.042721137
0000b0 9e 4f c6 3d 20 fe e6 3c 8a 9d 93 3d 05 2f 7e bd
       0.096831545 0.028197348 0.072077826 -0.06205656
0000c0 2e 75 9c 3d 57 f1 38 bc 6a 30 26 bb 56 69 ea 3d
       0.07639538 -0.011288009 -0.0025358447 0.114458725
0000d0 45 5e 4c 3d bb a0 39 bc 77 5f 10 bd b1 df 9c 3d
       0.04989459 -0.011329825 -0.035247292 0.07659853
0000e0 0d 64 10 bd 66 46 50 3d 57 f2 b0 3d e1 db 63 3d
       -0.035251666 0.050848387 0.08639973 0.055629615
0000f0 6a 73 aa 3d b8 af 3f bd 95 7e fe 3c 07 0e db bc
       0.08322795 -0.046798438 0.031066218 -0.026740087
000100 30 48 4c bc d4 73 5a 3d 99 b5 14 3b 0e 4d 8f 3d
       -0.012468383 0.05333312 0.0022691248 0.06997119
000110 e1 f3 84 bd 69 da ce 3d 2c 84 80 3d 4c 5e 63 bd
       -0.06491829 0.10100252 0.0627521 -0.05550985
000120 56 8f 11 3d 93 f8 4c 3d 67 93 2e 3d 00 fb e2 3c
       0.035537086 0.050041746 0.042621043 0.027707577
000130 3a 35 65 3d a5 c0 cf 3d 13 e4 58 3d 5d 62 5e 3d
       0.055958964 0.10144166 0.052951884 0.054293025
000140 40 11 c2 3d 30 c9 88 3d ed 07 64 bd 47 60 94 3d
       0.094759464 0.066789985 -0.05567162 0.07244926
000150 20 2f 6e bd 26 f8 d1 3c 70 97 80 3d 04 b2 d8 3d
       -0.05815041 0.025631022 0.062788844 0.10580829
000160 68 56 67 bd 24 c9 7d 3d 47 1c 32 3d ac 95 01 3e
       -0.056478888 0.0619594 0.043484 0.12654752
000170 ff 63 82 3c 4a ce 5d 3d 2a a5 f5 3d 72 8c 0f bd
       0.015916822 0.05415181 0.11994393 -0.03504605
000180 12 5b e5 3d 57 07 df bb b5 38 dc 3c 51 d2 c6 bc
       0.11199011 -0.006806295 0.026882509 -0.024270209
000190 6f 03 97 3d d4 76 4a 3c de cc 5f bd 86 ea 3d bd
       0.07373702 0.012357432 -0.054638736 -0.046366237
0001a0 99 55 c0 3d da 77 b6 3d 65 80 aa 3d cb 18 be 3d
       0.093913265 0.089095786 0.083252706 0.09282073
0001b0 f1 fc 6a 3d cb 8f 15 3c a0 2e ed 3d 06 bc c1 bc
       0.05737013 0.009128521 0.11581159 -0.023649227
0001c0 cb 39 ef bc 14 c6 ba 3d d4 81 6e bd 29 32 e2 3d
       -0.029202363 0.09119812 -0.058229282 0.110447235
0001d0 ad 5c c2 3d 54 65 01 3e c7 cd fd 3c c5 91 80 3d
       0.09490333 0.1263631 0.030981911 0.06277803
0001e0 6f 19 ba 3d bd b1 ae 3d 4d 9b 08 3e 23 40 92 bb
       0.09086882 0.08529995 0.13340493 -0.004463212
0001f0 b5 c5 31 bc 13 79 82 3c 86 a8 b5 3d 07 56 f1 3d
       -0.01085036 0.015926873 0.08870034 0.117839865

network_body._body_endoder.seq_layers.2.weight f4 [128, 128]
000000 4a 65 47 3d e7 c5 c9 bd 4c c8 4f 3d ec a3 21 3e
       0.04868058 -0.098522 0.050728127 0.15785187
000010 a2 48 3e bd 26 e6 c9 bd cc 93 c0 3b ca c6 ab bc
       -0.046455987 -0.098583505 0.0058769938 -0.020968813
000020 1d fc 4c bd 16 4a ec 3c b0 ef bc bd c1 f2 3d 3d
       -0.05004512 0.02884392 -0.09225404 0.046374086
000030 e0 69 6e 3d 90 49 57 3d 13 2c c8 bd 13 06 83 3e
       0.05820644 0.05256039 -0.097740315 0.25590572
000040 75 e0 36 bd 8a 46 2a 3c c4 5a d0 bd df b2 02 3e
       -0.044647653 0.010392794 -0.10173562 0.12763546
000050 86 93 ea 3d 98 07 c1 bd 79 ad 5c bd 9c 5a ad 3d
       0.11453919 -0.094252765 -0.053876374 0.08464548
000060 dd 22 44 3d 8b 59 1d 3d 54 35 48 3e b1 75 49 3c
       0.04788481 0.038415473 0.19551593 0.012296126
000070 cd a5 0e 3d e3 4e e0 bd 92 8c 41 bd 6c 41 d1 3d
       0.03482609 -0.109525464 -0.0472532 0.10217556
000080 2e 1b 30 3e 43 27 35 3d 9d 12 04 be df d7 93 bd
       0.17197868 0.044226896 -0.12897725 -0.072189085
000090 b6 49 0e be e1 72 49 bd 16 64 af bd e0 72 e1 3d
       -0.13895306 -0.049181823 -0.08564012 0.11008239
0000a0 0e cf 96 3d 4d 3c 3e 3d 52 f1 e0 bd fd 6b 5a 3d
       0.07363711 0.046444226 -0.10983528 0.053325642
0000b0 61 2f 16 bc f1 be 6f bd a6 18 0e 3c 6e c6 1d bb
       -0.009166569 -0.058531705 0.008672869 -0.0024074572
0000c0 df 04 9b bd 4a fe 14 be f0 3c 79 b8 cc f4 e5 3b
       -0.075692885 -0.14550129 -5.942298e-05 0.0070177075
0000d0 3a 67 08 bd c7 e1 e0 bc db d4 20 3d f5 46 ab 3c
       -0.03330157 -0.027451409 0.039265495 0.020907858
0000e0 c7 3e 00 be 06 2e 2a 3e b0 31 62 3d 15 5f d8 bd
       -0.12523948 0.16619119 0.055223167 -0.105650105
0000f0 ed 30 dd 3d 38 37 a9 3c b5 c4 a6 3d d0 5a b2 3c
       0.108003475 0.020656213 0.08142988 0.021771818
000100 99 cc fe 3c 8d 98 72 bd 25 fe 30 3d 23 01 28 3e
       0.03110342 -0.059227515 0.04321112 0.16406684
000110 de 03 53 bc 4d fb cf 3d 45 ec 8f 3d 51 8b 63 bd
       -0.01287934 0.10155354 0.07027487 -0.055552784
000120 11 11 df 3d cd 1b 03 be 07 38 5c bd ae 37 73 3e
       0.10891927 -0.12803574 -0.05376437 0.23751709
000130 12 4b dd 3d 46 76 00 3e 3a 68 f6 bb 03 14 24 3e
       0.10805334 0.12545118 -0.007519749 0.16023259
000140 7a 14 0a 3d 5d 1b 59 3c f5 8d 52 3e 3f ac 32 3e
       0.033710934 0.013251153 0.20561965 0.17448519
000150 a6 f6 7b 3c 50 84 a1 bd 0f f4 c7 3d 09 e5 49 3c
       0.01537863 -0.07886565 0.09763347 0.012322673
000160 cf 22 12 be 48 8d 66 3d ef ff 9e 3d 81 ca 0d 3c
       -0.14271091 0.05628708 0.07763659 0.008654238
000170 0a 21 4c bd 26 6b 99 3d 4f 58 9f 3d 69 d3 35 3d
       -0.049836196 0.0749114 0.077805154 0.04439107
000180 b2 94 c1 3d 8c ff 12 be 4b 90 d9 3d ee 41 81 bd
       0.094521895 -0.14355296 0.10623225 -0.06311403
000190 35 25 ed 3d f3 f8 de bd 2b d3 7a 3d 79 fa b3 3d
       0.11579362 -0.10887327 0.06123654 0.08788008
0001a0 bd a1 2d 3c 10 2d 6d 3e 11 54 b0 3d 88 7c b2 3c
       0.010597643 0.23161721 0.086097844 0.021787897
0001b0 d8 53 9a bd 2d 9f 12 bd ac 70 a6 3d 96 d9 6c bd
       -0.07535523 -0.035796333 0.08126959 -0.057824694
0001c0 3a cb 27 3d 7a 21 f9 3d b9 1d 07 bd 10 cd 35 3d
       0.040965296 0.12164588 -0.03298733 0.044385016
0001d0 e6 d4 d7 3d e4 16 d8 bd 0d fc e3 bc 77 1b 20 be
       0.10538654 -0.10551241 -0.027830148 -0.15635477
0001e0 c4 90 0f 3e fc 67 db 3d 03 7a f2 bc 36 4b 2d 3c
       0.14020067 0.10713193 -0.029599195 0.010577014
0001f0 39 5e 68 3e 04 08 71 be 73 f0 13 3d 76 e4 b6 3d
       0.22692193 -0.23538214 0.036117982 0.08930294
000200 91 28 f8 3c 16 04 9c bd f1 21 46 3d 4a 8c 29 bd
       0.030292781 -0.07617967 0.048372213 -0.041393556
000210 86 3f 39 3d 28 99 68 3d 2f 3d 08 3d 9a 75 52 3d
       0.045226596 0.056786686 0.033261474 0.051381685
000220 67 50 99 3d e9 56 98 bd 87 02 ae ba 07 74 c5 bc
       0.07486039 -0.07438452 -0.00132759 -0.024103178
000230 1e a3 bf 3d ab 05 11 be e1 75 93 3c b1 c0 ea bc
       0.09357284 -0.14162318 0.018000545 -0.028656336
000240 ae 74 6b 3e 54 e4 f2 3c ce 03 09 3d d7 f0 30 be
       0.22993729 0.029649891 0.033450894 -0.17279373
000250 2a 30 83 bc d2 15 16 bd f0 f8 49 3e 7e 7e df bd
       -0.016014177 -0.036641903 0.19723868 -0.10912798
000260 94 ad 89 bd 01 c7 f6 3d 24 3b 16 bc 1b af 9f 3d
       -0.067225605 0.12049676 -0.009169374 0.077970706
000270 a6 28 c0 3d 3a 16 e2 bd 97 d0 17 bd af db 08 be
       0.09382753 -0.11039396 -0.03706416 -0.13365053
000280 67 42 45 3b 0e 94 d3 bd f9 1e d4 bc ef cf e2 bd
       0.0030099393 -0.103309736 -0.025893675 -0.110748164
000290 e0 f6 d5 bd d4 f2 bf 3d 62 b1 1a 3e c0 90 63 3e
       -0.10447478 0.09372488 0.15106729 0.22223186
0002a0 b0 c7 89 bd 98 2f 05 be 41 39 af 3c dc 21 74 3d
       -0.067275405 -0.13006437 0.021389605 0.059602603
0002b0 96 fb 29 be a8 e9 eb bd 12 d9 83 3d b4 96 a9 bd
       -0.16599879 -0.11519176 0.06437887 -0.082806975
0002c0 7e 6f b9 3d 0a 7a 56 3c 89 83 0f be d0 34 6a be
       0.090544686 0.01309062 -0.1401502 -0.22871709
0002d0 bd b5 0d be 57 20 17 bd bc 0a 89 3d a6 31 0c 3e
       -0.13838859 -0.036896076 0.066915005 0.13690814
0002e0 25 36 44 bd 10 88 05 3e f8 3f b9 bd c6 0c ef 3d
       -0.0479032 0.13040185 -0.09045404 0.11672358
0002f0 3b 06 de bd c4 82 82 3d f8 d9 e2 3d b0 e3 22 3d
       -0.10841032 0.06372598 0.110767305 0.03976792
000300 7e d0 28 3c 88 b3 f3 bd fa 17 4b 3d 8a f6 aa 3c
       0.010303615 -0.11899477 0.049583413 0.020869512
000310 c3 a2 15 3e 18 1c 0c 3e 32 2f 5c 3d 27 9f b5 bd
       0.1461287 0.13682592 0.053755946 -0.088682465
000320 67 08 25 bd e8 94 d1 3c 7a 13 0e be 57 72 1e 3e
       -0.040291216 0.0255837 -0.13874617 0.15473305
000330 20 15 98 bc 70 bf 81 bd 77 c7 cc 3d 7a db fb 3c
       -0.01856476 -0.06335342 0.099989824 0.030744303
000340 45 af a1 bd 03 cd d9 3d 50 f5 45 bd 01 2d 40 be
       -0.07894758 0.10634806 -0.04832965 -0.18767168
000350 25 e6 29 3c 15 4b 81 3d ee b3 c2 3d 35 1f c3 3d
       0.010369812 0.06313149 0.09506975 0.09527437
000360 ca ee 86 bd 1c 16 4a 3d 84 c6 9e 3d bc 25 05 be
       -0.06588514 0.04933749 0.077527076 -0.13002676
000370 f3 e9 99 3c 5b c0 b5 3d 1a 43 2c bd 51 fb 28 3e
       0.018788313 0.088745795 -0.04205618 0.1650212
000380 bd 6d 4b 3e c5 0a 87 3d 74 8c 3c 3e 25 a9 cb bd
       0.1986608 0.06593851 0.18412954 -0.09944371
000390 02 ac 35 be fe 47 49 bd 73 f2 bb 3c 97 da f6 3c
       -0.17741397 -0.049140923 0.022942757 0.030133529
0003a0 39 14 5d 3c f0 3b 29 3e ea 8d ab 3c b3 4f 64 3d
       0.013493591 0.1652677 0.020941693 0.05574007
0003b0 c8 0d 96 bc 3c f5 c4 3c c8 79 01 be 5b 81 67 3d
       -0.018317118 0.024042718 -0.12644112 0.056519847
0003c0 9d dd e9 3c 35 2f 03 bc d2 3b 10 bd 93 f0 33 3e
       0.028548056 -0.0080068605 -0.0352133 0.1757224
0003d0 31 2f 98 3d f0 83 77 3d 4d 38 48 3d 4d 5f 07 3e
       0.07430876 0.06042856 0.048881818 0.13219948
0003e0 5b b9 4d 3e d2 53 67 bc b8 52 0e bd a7 49 64 bc
       0.20090239 -0.014119105 -0.034746855 -0.013933576
0003f0 f0 b6 71 bd 8b ba 81 3d 8c 96 ee bd 88 cc cb bd
       -0.059012353 0.063344084 -0.11649808 -0.099511206

network_body._body_endoder.seq_layers.2.bias f4 [128]
000000 3b 03 84 3d f6 9d c3 bb 19 35 a9 3d 7c da d4 bc
       0.06445929 -0.005969758 0.08262081 -0.025983088
000010 e3 2d a7 3d 8a c5 7f 3d fc 46 da 3d 2f 42 94 3d
       0.08163049 0.062444247 0.106580704 0.07239186
000020 88 43 11 bd 1b 39 1f bd 5b df f1 ba e9 04 19 3d
       -0.035464793 -0.03887282 -0.0018453406 0.0373582
000030 08 d9 98 3d fe 87 0b 3d 36 70 96 3d 69 10 44 3d
       0.074632704 0.03406524 0.07345621 0.047867212
000040 fa 42 40 bb 44 ca 97 bc 96 ff c3 3d e2 fb 87 3d
       -0.0029336796 -0.018529065 0.095702335 0.0663984
000050 99 25 12 bd 40 38 47 3d 32 69 b0 3b f0 2a a9 3d
       -0.035680387 0.04863763 0.005383634 0.08260143
000060 72 db 0f 3d ac 42 55 3d 84 b9 77 bc 79 97 c9 3c
       0.03512139 0.052065536 -0.015119914 0.02460836
000070 84 30 3b 3b 5b 03 96 bc b1 a9 6d 3d 8d a7 fe 3d
       0.0028562853 -0.018312147 0.05802316 0.124343015
000080 27 a5 e5 3c fa e7 5c 3d 8f 82 d0 b8 15 8a b4 ba
       0.028032852 0.053932168 -9.942531e-05 -0.0013774062
000090 47 96 c7 3c 5e 12 bc 3d 64 50 e9 bb 3d 26 2c bd
       0.02436365 0.09183191 -0.007120179 -0.042028654
0000a0 07 24 af 3d 53 3f 4b 3d 81 9a 77 bc 1e 05 2f 3d
       0.085517935 0.049620938 -0.01511252 0.04272949
0000b0 f7 25 21 bd 25 26 14 bd d9 9a ef bc 63 7e a0 3d
       -0.039342847 -0.03616919 -0.029248642 0.07836606
0000c0 23 f1 ac 3d df d9 9e 3d 98 08 53 bb c5 fb 72 3d
       0.08444431 0.07756399 -0.0032201167 0.059322137
0000d0 91 b2 91 bb ba 6f e6 3c b7 98 8f 3d 88 a0 e8 3d
       -0.0044463356 0.028129447 0.0701155 0.11358744
0000e0 e0 ac 56 3d f1 7b 67 bc 48 5d 79 3d 6e 61 da 3c
       0.05241096 -0.014128671 0.060879976 0.026657786
0000f0 55 61 8d 3d 1c 50 27 3d d3 b7 63 bc b9 35 22 bd
       0.0690333 0.040847883 -0.013898808 -0.039602015
000100 14 9c 31 bc 66 88 a6 3d 9a 3a 4e 3d a0 7a 96 3d
       -0.010840435 0.08131485 0.050348856 0.073476076
000110 0d 62 20 3d ed e9 94 3d 31 1d a6 3d b9 27 4b 3d
       0.03915601 0.0727118 0.081110366 0.04959843
000120 23 6f f7 3b 1a b8 96 3c 77 aa 69 3d 0d dd 60 3c
       0.0075510903 0.018398333 0.057047334 0.013724578
000130 34 ee ae 3d 83 76 c0 3d 42 ba 38 bd de 7f 3e bd
       0.085415274 0.09397604 -0.045099504 -0.046508662
000140 a0 1d 49 3d d6 fa cc 3d e8 01 a9 3d a2 e1 8e 3d
       0.04910052 0.10008781 0.08252317 0.0697663
000150 77 04 66 3d f5 d9 40 3d 54 a9 e6 3d 7a 2a f3 bc
       0.0561566 0.04708286 0.112627655 -0.02968334
000160 8f c6 36 3d 58 fa 1d 3d f8 35 07 bd 37 61 eb bb
       0.044622954 0.038568825 -0.033010453 -0.00718322
000170 09 35 4a bd d2 1c c8 3d e2 cd a6 bc 68 51 29 bc
       -0.049366985 0.09771122 -0.020361844 -0.01033435
000180 fa cd 72 3d e8 35 0c 3d e9 db 3c bd db 12 83 3d
       0.059278466 0.034231097 -0.04610816 0.06400081
000190 40 38 b1 3d 95 c1 9f 3d f0 48 e6 ba 80 ba 32 bd
       0.08653307 0.07800595 -0.0017569344 -0.04363489
0001a0 23 df 1a bd 65 1c 0d bd 06 87 4c 3d 57 65 49 bd
       -0.037810456 -0.034450907 0.049933456 -0.04916891
0001b0 ed 4c 73 3c ad 33 94 3d 76 37 90 3c c5 9a d0 3d
       0.0148498835 0.07236419 0.01760457 0.1018577
0001c0 69 22 3b 3d b5 44 1d ba 9a 6f 21 bd 33 e4 c6 3d
       0.045687113 -0.0005999313 -0.039413072 0.09711494
0001d0 69 b3 18 bd 9f e9 aa 3d f4 37 ad 3d ab b0 58 bc
       -0.037280474 0.08345341 0.08457938 -0.013225715
0001e0 fc 14 7f 3d 8f 4f 54 bc a1 18 ad 3d 66 d0 0b 3d
       0.06227587 -0.012958421 0.08451963 0.03413429
0001f0 d3 d4 fd bc dc cb c2 3d dc 6b e5 bc a6 be 22 bd
       -0.030985272 0.09511539 -0.028005533 -0.039732598

action_model._continuous_distribution.log_sigma f4 [1, 2]
000000 55 cb e8 bc 0b ed 37 bd
       -0.028417269 -0.044903796

action_model._continuous_distribution.mu.weight f4 [2, 128]
000000 22 11 3e 3d 6b 3a fd 3c 9b 88 e6 3c 91 f1 36 bd
       0.046403058 0.030911645 0.02814131 -0.04466397
000010 e9 15 7a bc 12 44 38 bd fa 5c 2a 3d 4c 13 75 bd
       -0.015264013 -0.044986792 0.041592576 -0.059832856
000020 c7 00 ed bb 60 1e 0c 3c 84 73 68 bd 88 92 ca bd
       -0.0072327587 0.008552164 -0.05675079 -0.0989123
000030 12 2e eb bd 33 4b b6 bd fd ec 43 3d 23 db 27 bd
       -0.114833966 -0.08901062 0.04783343 -0.04098047
000040 48 fc 0f bd 95 25 56 bd 7d d3 a8 bc 83 82 99 3d
       -0.035152704 -0.052281935 -0.020608658 0.07495596
000050 98 8b df bc 15 43 5c bd 6a fc 92 bc db 22 5b bc
       -0.027288243 -0.053774912 -0.017942626 -0.013375009
000060 78 1f 18 3e 7d ce 92 bd 01 a2 05 3c 2b 03 a4 bd
       0.14855754 -0.07168291 0.0081563005 -0.08008417
000070 00 5c 4f 3d c2 10 31 bd 98 fe 21 bd 51 f6 7d bd
       0.050624847 -0.043228872 -0.03954944 -0.062002484
000080 2d de 64 bd d2 eb 97 3d 09 3d 93 3d 46 d0 78 3d
       -0.055875946 0.07418026 0.07189376 0.0607455
000090 7d 39 56 bd 61 f5 b1 bd 82 f9 aa bd 6d dd 37 3c
       -0.05230092 -0.086893804 -0.08348371 0.011222226
0000a0 14 f4 30 3d 01 a2 2f 3d e0 5e 24 bd e0 08 a5 3d
       0.04320152 0.04287911 -0.040129542 0.080583334
0000b0 fb f1 0e bc 82 7c 02 3d da 00 fb 3c 74 85 57 bd
       -0.008724685 0.03185702 0.030640054 -0.052617505
0000c0 1e ce 91 bd d6 49 bd 3d 78 b2 79 bd ef 87 a7 3d
       -0.07119392 0.09242599 -0.060961217 0.08180224
0000d0 63 09 51 bd cb 8c f9 3d 1d a5 8a 3d d7 63 e6 3b
       -0.051034342 0.12185057 0.06769774 0.007030945
0000e0 f9 3b 4d 3d 2a 76 27 3d a0 16 9c bc 46 34 c3 3d
       0.050106023 0.040884174 -0.019053757 0.09531455
0000f0 28 69 15 bc 8b 58 87 bd 1b 65 5a bd b3 74 70 3c
       -0.0091193095 -0.06608685 -0.053319078 0.014676261
000100 c5 6c 28 bd fd cd a7 bd f7 de af bd 3c 1c a4 bc
       -0.041119356 -0.08193586 -0.08587449 -0.020032994
000110 b4 39 64 3d 85 b3 0b bd 06 9b 28 bd 60 24 3f 3d
       0.055719092 -0.03410675 -0.041163467 0.04666555
000120 92 21 0a 3d 1f 48 b7 3d 8a 91 71 bd cd 56 b7 3d
       0.03372342 0.08949303 -0.058976687 0.08952103
000130 17 43 46 bc f8 11 e3 3c ae 99 88 bc 86 d5 ad 3c
       -0.012100956 0.02771853 -0.016674843 0.02121998
000140 18 80 58 bc 7e e0 1a 3d 7c 59 dc bc eb f1 ac bd
       -0.013214134 0.03781175 -0.026898138 -0.0844458
000150 5c 1e 6b bc ee 93 17 3d 10 cf 42 3d 92 ef 30 3d
       -0.0143505 0.03700631 0.04756075 0.043197222
000160 21 e1 66 3d 8a 28 ce bd a2 bb 3b 39 b4 a6 ec 3a
       0.056367043 -0.10066326 0.00017903608 0.0018055052
000170 10 b2 91 3c 5f 5e 06 3d c6 04 3f 3d d1 38 be 3c
       0.017785102 0.032804843 0.04663541 0.023220452
000180 20 21 b3 3d c4 ed 29 3d 56 29 5f bc 1f 95 71 3d
       0.087465525 0.041486517 -0.013620695 0.058980104
000190 af 8d d8 3c 99 0b 29 3d 17 5a 37 bd a7 16 6b 3c
       0.026434748 0.041270826 -0.04476365 0.014348662
0001a0 60 f6 a5 bc c7 54 3b 3c 57 39 f3 3c fe fc 74 3c
       -0.020259082 0.011433787 0.029690428 0.014952896
0001b0 11 09 81 bd 7b 38 7a bd 44 b1 4a bd c4 36 aa bd
       -0.063005574 -0.06108902 -0.04948546 -0.08311227
0001c0 8a b5 c9 3d 27 57 8c bd e6 23 78 3b cf a2 57 3d
       0.09849079 -0.068525605 0.0037863194 0.0526455
0001d0 36 75 08 bd 64 c3 83 3c 56 17 9b bd ed 2d 5a 3d
       -0.033314906 0.01608438 -0.0757281 0.053266454
0001e0 6c d9 8a 3d 1d 7b 55 3d 6a aa 4c bd 98 eb 99 bd
       0.06779751 0.052119363 -0.049967207 -0.07515639
0001f0 90 e1 d0 bc 37 2e de bd 35 12 05 3d c1 e6 52 bd
       -0.025498182 -0.108486585 0.032488067 -0.051489595
000200 d8 23 19 bd 7d c6 1b 3c 26 2b 90 bd b0 d8 93 3d
       -0.0373877 0.0095077725 -0.0703948 0.07219064
000210 2b 96 a6 bd 0a a6 28 bd 38 01 c0 bd c0 8a dd ba
       -0.08134111 -0.041173972 -0.093752325 -0.0016902313
000220 b2 7c 9a 3d ee 3e 8e 3d bc 73 9d 3c 19 d9 73 3b
       0.07543315 0.06945597 0.019220226 0.0037208258
000230 87 5b 9d ba 01 5d 22 3b 78 42 49 bd 04 14 2a bc
       -0.0012005427 0.0024774673 -0.049135655 -0.010380749
000240 f5 6f f0 3b 6e 2e 7c 3d 17 f6 63 bd b4 a2 1b bd
       0.007337565 0.061567716 -0.05565461 -0.037996963
000250 a6 12 ab 3c f5 b1 b8 bc e9 e3 8c bb e2 7f 86 bd
       0.020882916 -0.022545794 -0.00429963 -0.065673605
000260 09 f1 6d 3d fd 14 dd bc 40 5b bf 3d 3d 14 6c 3c
       0.058091197 -0.026987547 0.093435764 0.014409122
000270 c7 63 53 3c a7 97 a6 3d e0 de f2 bc 00 87 d5 bd
       0.012902207 0.08134394 -0.02964729 -0.1042614
000280 0d 31 37 bc 98 f0 01 bc 08 fc 14 3d ba 3a dc 3c
       -0.011181128 -0.007930897 0.03637317 0.026883472
000290 12 e9 5c bb d0 d7 ab bd bc 2b 85 3d f8 1c fb 3c
       -0.0033708257 -0.08390772 0.06502482 0.030653462
0002a0 65 e5 7e bd 5e 1e d8 bc 1a 86 3e 3d 3a 1e 2b 3c
       -0.062230486 -0.026381668 0.046514608 0.010444218
0002b0 fc e3 52 3d c4 e9 93 3d f6 7b 19 3d 18 e0 95 bd
       0.051486954 0.07222322 0.037471734 -0.07318133
0002c0 29 63 8c bd d4 6f 73 bd df 00 01 3d c1 ea 4d bd
       -0.06854851 -0.05943282 0.03149497 -0.050272707
0002d0 ed 05 ac 3c 00 7d 1c 3c e4 30 33 bd 2d fe e6 bd
       0.02099892 0.009551287 -0.043747798 -0.11278949
0002e0 7a f4 6c bc 16 26 18 3d 9f 87 14 bd 56 b2 20 ba
       -0.014462585 0.037145697 -0.03626215 -0.000613009
0002f0 af 67 36 bd 6c c4 51 bc 1e 9b a3 3d d0 7f 40 3d
       -0.044532474 -0.012803178 0.07988571 0.04699689
000300 30 a9 84 3c 99 36 6c bd d8 0a 5d bb 06 e2 5e bd
       0.016193956 -0.057669256 -0.0033728387 -0.05441477
000310 49 ae cb bc 2f 9e 24 bd 86 35 a7 bd ee ec 6f bd
       -0.02486338 -0.040189918 -0.08164506 -0.058575563
000320 98 89 64 ba c9 ae 9b 3c 3c 72 2c bd 05 68 75 3c
       -0.0008718013 0.019004242 -0.04210113 0.0149784135
000330 26 0f 46 bd 71 a9 9f bd 46 c3 74 3d 89 aa 46 3d
       -0.04835429 -0.0779599 0.05975654 0.04850248
000340 c8 39 b0 bc bd 55 fc bd bf 20 62 bd 8b cd 7b bd
       -0.021511927 -0.12321041 -0.05520701 -0.061475318
000350 1c d8 d6 bc 93 6f e9 bc 7a 80 f0 bd 67 ba 04 3d
       -0.026226096 -0.028495586 -0.11743255 0.03240433
000360 54 b8 66 bc 1f b8 a1 bc 90 e2 4b 3d 86 1b 0d bc
       -0.014082033 -0.019741116 0.049776614 -0.008612519
000370 9a 49 06 3d 3f d2 c6 bd 57 f4 ab 3d 7c 40 16 3d
       0.032785036 -0.0970807 0.083962135 0.03668259
000380 37 a0 2e bd 86 60 a6 bb f0 79 25 3d 99 58 36 bd
       -0.04263326 -0.0050774245 0.04039949 -0.044518087
000390 49 10 49 bd 8e b7 7a bd 10 0d c1 3d d7 6b af 3d
       -0.049087796 -0.061210208 0.094263196 0.08565491
0003a0 43 36 8c 3c 8b 63 79 3d 3c 5f 1a bd 38 da 91 3d
       0.017115718 0.060885947 -0.03768848 0.071217
0003b0 da 65 1e 3c 04 0d 56 bd c1 6c 91 3d 72 02 e4 bd
       0.009667838 -0.052258506 0.07100821 -0.11133279
0003c0 6a c2 15 bd 6a 3e 1a 3d 6f e1 d8 3d 6d 8b b5 bd
       -0.03656236 0.03765718 0.10589873 -0.08864484
0003d0 28 ef b5 3c 19 df 7f bd c0 60 83 bd e5 93 39 3d
       0.022208765 -0.062468622 -0.06414938 0.04530706
0003e0 7e bd 88 bc 61 fc ac 3d f6 8d a8 bd 5f ae 3a 3b
       -0.01669192 0.08446575 -0.08230202 0.002848528
0003f0 c8 00 09 3d f0 df 5e bd 6d 33 9c 3d f3 39 7a 3d
       0.03344801 -0.054412782 0.07626996 0.06109042

action_model._continuous_distribution.mu.bias f4 [2]
000000 0c 63 90 bb 9b 7c 7d bd
       -0.0044063386 -0.06188641

action_model._discrete_distribution.branches.0.weight f4 [1, 128]
000000 cc 58 3d 3c 5f a4 c1 bb fd 96 28 bc 27 68 0e 3c
       0.011556815 -0.005909487 -0.010289905 0.008691824
000010 78 fd fb 3b e5 93 63 3b 95 39 92 3b da 28 07 ba
       0.007690128 0.0034725603 0.0044624307 -0.00051559287
000020 53 aa 2c 3c e6 a8 8d 3a 30 8a e8 bb 5a 58 7a 3b
       0.010538655 0.0010807782 -0.0070965514 0.0038199634
000030 a7 bf 06 bc 6b b6 73 bc 6f 5a f9 3b 66 44 46 3b
       -0.008224404 -0.014875035 0.0076096575 0.003025317
000040 43 e8 18 3b 42 d3 57 bc dd bb 62 3b 94 ce 2c 3a
       0.0023331798 -0.013172926 0.0034596839 0.0006592062
000050 81 c2 aa bb c3 6b b0 bb c1 4c 48 3c df e9 89 b6
       -0.005211175 -0.00538394 0.012225331 -4.1101443e-06
000060 76 06 1d bc 83 d6 46 3c 08 11 fd 3a b3 bc 21 3c
       -0.00958406 0.0121361045 0.0019307444 0.00987165
000070 d3 a6 71 3b eb b6 45 3c eb 42 89 3c 3d cd dd 39
       0.0036873117 0.012067537 0.016755542 0.0004230532
000080 5a 4b 46 ba 93 80 21 bc 1d 08 d6 ba 32 31 f3 3a
       -0.0007564329 -0.009857315 -0.0016329322 0.001855409
000090 bd 28 40 3b 2f 2d 39 3b 87 8c 34 bb 38 82 d0 bb
       0.0029321157 0.0028255691 -0.002754958 -0.0063631795
0000a0 3d b6 f2 ba 32 9f 97 3c 3b 57 6a 3a d9 12 4c 3c
       -0.0018517446 0.018508527 0.000893939 0.0124556655
0000b0 fb cd 1a bc 55 6c e9 ba dd 52 82 3a 71 92 35 bc
       -0.009448524 -0.0017808775 0.0009942908 -0.011082278
0000c0 eb cb 5a 3c 9d 4a 68 3a ff 2c 0f bc 25 3f aa 3b
       0.013354282 0.0008861216 -0.008738755 0.0051955157
0000d0 a5 1d e1 3b ef bc 38 3a 8d af c8 37 7d fd fe bb
       0.006869989 0.0007047196 2.3923605e-05 -0.007781683
0000e0 3f e7 a1 bb bb 1f 09 3c 37 c5 d6 ba 9b d0 b0 bb
       -0.0049408968 0.008369382 -0.0016385679 -0.0053959615
0000f0 da ce 9f 3b 33 88 c7 3a fb f0 0e 3c 49 a7 aa 3b
       0.0048769535 0.0015223086 0.008724446 0.00520793
000100 7d 34 0b bc 86 21 18 bc 1f 53 37 3c 9b 72 d9 ba
       -0.008496401 -0.009285336 0.011189251 -0.0016589941
000110 af 28 f5 ba 9f 16 3e bc 08 c6 2e bb bb 53 37 bb
       -0.0018704141 -0.011602073 -0.0026668329 -0.0027973491
000120 30 81 79 3b 05 1c 64 3c 84 4f 98 ba 7c 81 8e bc
       0.0038071387 0.013922696 -0.0011620377 -0.017395727
000130 64 22 05 3c 3d e6 e8 ba 60 e2 9c 3a a4 8e 4b bc
       0.008125875 -0.0017768812 0.001196932 -0.012424145
000140 63 43 75 ba 6f b8 b1 3a 05 8e d1 b9 58 05 50 3b
       -0.00093560497 0.0013558994 -0.000399694 0.0031741466
000150 7d 37 98 bc 87 eb 18 3b 0b 37 f7 3b bd bb d9 bb
       -0.018581146 0.0023333745 0.0075444034 -0.0066446946
000160 cb 23 d8 bb 75 6d 6c 3c 44 2f 8b 3b 27 8a 07 3b
       -0.0065960637 0.014430393 0.004247578 0.002068171
000170 28 4a 0f bc 9a ce 63 bb 09 10 94 3a 3f 63 c8 3b
       -0.008745708 -0.0034760595 0.0011296283 0.0061153467
000180 a3 ec 1d bc 3b e3 63 bb 75 55 12 3c 9a 82 f0 3a
       -0.009638938 -0.003477289 0.008931507 0.0018349469
000190 4d e4 86 3c 1f d9 33 bc e7 66 53 3c d3 95 05 3b
       0.016466284 -0.010977059 0.012902952 0.0020383492
0001a0 90 f9 6c ba 97 c4 9d 3b 74 84 00 bc b1 5a 00 3b
       -0.0009039873 0.004814695 -0.007844079 0.0019585306
0001b0 e5 4d db 3c 5d a9 ac ba 0a 33 59 bb d1 bd 98 39
       0.026770541 -0.0013173033 -0.0033141994 0.00029133123
0001c0 30 5a 9b 3b ef 89 56 ba 7b f7 79 bc 20 36 66 3b
       0.004740976 -0.0008184006 -0.015256758 0.0035127476
0001d0 52 01 7c bc ed 46 52 3b ce 6c 0c 3c 7b 24 ab 3b
       -0.015381174 0.0032085732 0.008570863 0.0052228547
0001e0 40 49 26 3a 5a d4 93 bb 95 79 de bb b8 14 af 3c
       0.00063433126 -0.0045113983 -0.006789396 0.021372184
0001f0 72 1d 2c 3c 1b ff e1 ba 6b 49 35 3b ec ef 22 39
       0.010505067 -0.0017242165 0.0027662169 0.00015538902

onnx::Div_70 f4 [21]
000000 cf da 1d 3f 68 94 d8 3e e6 c0 bc 3e 9c 01 bd 3d
       0.61662 0.42300725 0.3686592 0.092288226
000010 89 a1 9f 3d 9b 5e 4b 3e c0 4d 58 3e 9c 7e 49 3e
       0.07794482 0.19860308 0.2112341 0.19677204
000020 ac 5a 22 3e 3d 5b 04 3e aa 7b 13 3e 7c ff 34 3e
       0.15854901 0.1292543 0.14402643 0.17675585
000030 3b 2c 4a 3e ac 58 40 3e c8 0c 4f 3e c5 c4 54 3e
       0.19743435 0.18783826 0.2021972 0.20778187
000040 ba 6c 4e 3e 67 e1 40 3e fa ee 55 3e df 6a 61 3e
       0.20158663 0.18835984 0.20891944 0.22013424
000050 0e cc 5a 3e
       0.21366903
