Assets/Scripts/AI/PPO/MonsterAgent.onnx (onnx, 76949 bytes, 9 tensors)

network_body.observation_encoder.processors.0.normalizer.running_mean f4 [12]
0.03690122 -0.6976536 0.663318 -0.00011970616 -0.06807451 -0.018550064 -0.33583388 0.8841281
0.01012306 -0.3226512 0.8917129 0.004077586
00000000: bc25 173d 6d99 32bf 35cf 293f c10a fbb8
00000010: a66a 8bbd 4ef6 97bc 6bf2 abbe 3856 623f
00000020: 31db 253c 8a32 a5be 4c47 643f 459d 853b

network_body._body_endoder.seq_layers.0.weight f4 [128, 12]
0.080482975 -0.056758493 0.16887093 -0.014364391 0.12795766 0.021189846 -0.49326292 -0.19620767
0.46175444 0.059025038 -0.2791325 -0.19090077 0.095097415 0.21477893 -0.04040144 -0.23783016
0.2553146 0.05007409 0.2146252 0.49165207 -0.27887958 -0.20001064 0.13760118 0.0062346845
0.52526104 0.25746882 0.12934661 0.034379594 0.34253258 0.010021536 0.29938087 -0.13847588
-0.1185534 0.0023722032 0.13683477 -0.045441244 -0.24084897 0.14204203 0.16072962 -0.27065173
0.38316613 0.2816777 0.04666524 0.15280402 0.2831351 -0.46358693 -0.013990136 -0.17430241
-0.028302679 -0.1173332 -0.15342957 -0.13726749 0.13162126 -0.059845004 0.26126233 -0.45474982
0.35717046 -0.17059991 -0.31014425 0.2486333 -0.09260826 -0.124767624 -0.06370266 -0.54836845
0.14302076 -0.10490612 0.0033637057 -0.18093197 -0.18341814 0.35920095 -0.14803536 0.107143015
0.3492787 0.51693577 -0.08579211 -0.078599036 0.11755233 -0.403536 -0.1377372 -0.47982815
-0.23683952 -0.5218474 -0.2763843 0.006476409 0.48778537 0.45379594 -0.42046782 -0.24809891
0.2646471 0.13985342 -0.544094 -0.4651654 -0.08395296 -0.05809293 -0.134668 0.04785025
0.2901563 -0.41645727 0.18554962 -0.0025918388 0.49055064 0.20414267 0.19704811 0.07439133
0.3480588 -0.0002877518 -0.07704422 0.35335994 -0.59749717 -0.35893476 0.15500236 0.1403327
0.014524302 -0.0037158637 0.53273064 0.18253298 0.4939392 -0.07656372 0.14513808 0.32804003
-0.44321978 0.07962323 0.4391011 0.08240591 -0.30149972 0.028502783 -0.20178336 0.2625518
0.07437434 0.2800373 0.5080157 0.20300706 -0.34245476 -0.10548759 0.11610845 0.06682542
0.01987325 -0.76187795 -0.2485987 0.10407015 -0.042969212 0.34575558 -0.16982739 -0.5385923
0.24561097 -0.33521765 -0.70284307 -0.3154119 0.10520912 -0.058328144 -0.19487989 -0.40419504
-0.017172497 -0.033453967 0.10046691 -0.075591914 0.5169747 -0.66246015 0.43483302 -0.22100048
-0.22459702 -0.44663364 -0.38928524 0.16544728 -0.02214347 -0.7227142 -0.017939288 -0.5383055
-0.25873452 -0.14043304 -0.29604512 -0.21447371 -0.0327544 -0.34824595 0.47646683 -0.12573566
0.34232447 0.5727675 0.24669772 0.054904245 -0.18861248 -0.30932152 0.65379137 0.6114476
-0.20304494 -0.04009275 0.15657702 0.15238954 0.20567752 0.48859474 0.02660898 -0.023516895
-0.061882287 0.018800175 -0.349722 0.50208616 -0.13951434 -0.2015896 -0.19220553 0.52255434
-0.05880218 0.11505594 -0.30995402 -0.22656631 0.35966825 0.019943003 0.17971478 0.28688985
-0.09341579 -0.3693456 -0.36440212 0.46865347 -0.56245255 -0.2442341 -0.26106384 0.13534619
0.14365572 -0.35228387 -0.30324927 -0.4965977 -0.3738809 0.022506919 0.08338791 -0.056256287
0.19134608 0.14924066 0.43255532 -0.0973569 0.40509468 0.009731516 -0.5657422 0.2939205
0.029412322 -0.14458439 -0.032436308 -0.09460802 0.5290512 -0.25980297 0.20685071 -0.012651804
0.64547294 -0.13060144 -0.6103701 0.058615237 -0.22230811 -0.06693139 0.35165685 -0.1263194
0.07847854 -0.30792955 -0.0037789927 0.30030626 0.2853217 0.33886155 0.48206627 0.1359724
00000000: 42d4 a43d 987b 68bd 80ec 2c3e 9f58 6bbc
00000010: 5507 033e 5496 ad3c f58c fcbe aaea 48be
00000020: 146b ec3e 3dc4 713d 74ea 8ebe 7e7b 43be
00000030: 6fc2 c23d 02ef 5b3e fb7b 25bd c089 73be
00000040: 98b8 823e 7d1a 4d3d b5c6 5b3e d2b9 fb3e
00000050: 4ec9 8ebe 97cf 4cbe 53e7 0c3e 534c cc3b
00000060: 8277 063f f4d2 833e 7073 043e 9ed1 0c3d
00000070: 6e60 af3e 5e31 243c 7348 993e 9fcc 0dbe
00000080: 20cc f2bd f776 1b3b 6a1e 0c3e 9920 3abd
00000090: 1da1 76be 7773 113e 4e96 243e dd92 8abe
000000a0: 5a2e c43e 0f38 903e 0d24 3f3d a878 1c3e
000000b0: 15f7 903e 445b edbe e236 65bc 557c 32be
000000c0: 05db e7bc 644c f0bd a41c 1dbe d98f 0cbe
000000d0: b9c7 063e 0920 75bd 2dc4 853e f8d4 e8be
000000e0: 0cdf b63e beb1 2ebe 3acb 9ebe ba99 7e3e
000000f0: 66a9 bdbd 2b86 ffbd 8a76 82bd e061 0cbf
00000100: 0974 123e 05d9 d6bd 9e71 5c3b 3b46 39be
00000110: f7d1 3bbe 30e9 b73e 9596 17be cc6d db3d
00000120: a8d4 b23e e755 043f c6b3 afbd 88f8 a0bd
00000130: 47bf f03d 459c cebe fb0a 0dbe 09ac f5be
00000140: 0f86 72be cb97 05bf 3e82 8dbe 0e38 d43b
00000150: 01bf f93e f157 e83e 8f47 d7be a40d 7ebe
00000160: d37f 873e bc35 0f3e bf49 0bbf 292a eebe
00000170: 88ef abbd daf2 6dbd 68e6 09be a0fe 433d
00000180: 5e8f 943e e339 d5be b800 3e3e d7db 29bb
00000190: 7429 fb3e c70a 513e fbc6 493e 7b5a 983d
000001a0: c334 b23e 65dd 96b9 5cc9 9dbd 98eb b43e
000001b0: 93f5 18bf 4cc6 b7be f0b8 1e3e 60b3 0f3e
000001c0: 57f7 6d3c d985 73bb 0961 083f ede9 3a3e
000001d0: 99e5 fc3e 71cd 9cbd 149f 143e ddf4 a73e
000001e0: b4ed e2be 8111 a33d dcd1 e03e 6ec4 a83d
000001f0: 2c5e 9abe ab7e e93c 4ca0 4ebe 316d 863e
00000200: 9351 983d 0d61 8f3e 510d 023f 15e1 4f3e
00000210: 3b56 afbe e109 d8bd 44ca ed3d c4db 883d
00000220: 3acd a23c 6f0a 43bf a890 7ebe bb22 d53d
00000230: 7c00 30bd e006 b13e 3be7 2dbe 2fe1 09bf
00000240: 7181 7b3e a6a1 abbe 86ed 33bf ab7d a1be
00000250: e177 d73d 7ee9 6ebd 988e 47be a7f2 cebe
00000260: 56ad 8cbc 0707 09bd 98c1 cd3d efcf 9abd
00000270: 7458 043f fd96 29bf 6fa2 de3e f34d 62be
00000280: c3fc 65be 2aad e4be 6550 c7be 036b 293e
00000290: 3966 b5bc cc03 39bf 6af5 92bc 64ce 09bf
000002a0: da78 84be aecd 0fbe 3a93 97be ff9e 5bbe
000002b0: 7a29 06bd 4b4d b2be 76f3 f33e d9c0 00be
000002c0: 2745 af3e e4a0 123f 549e 7c3e 46e3 603d
000002d0: a123 41be 645f 9ebe df5e 273f d487 1c3f
000002e0: 03eb 4fbe 4c38 24bd ba55 203e 010c 1c3e
000002f0: 219d 523e 1729 fa3e 13fb d93c 81a6 c0bc
00000300: 4878 7dbd d302 9a3c c30e b3be b888 003f
00000310: d9dc 0ebe 816d 4ebe 87d1 44be 1fc6 053f
00000320: 8eda 70bd 73a2 eb3d 4bb2 9ebe 0001 68be
00000330: 7026 b83e 825f a33c 2707 383e 3ae3 923e
00000340: c750 bfbd de1a bdbe ea92 babe 59f3 ef3e
00000350: e4fc 0fbf 8118 7abe 29aa 85be 3198 0a3e
00000360: 7c1a 133e 8d5e b4be 7d43 9bbe 0e42 febe
00000370: 516d bfbe 6e60 b83c 48c7 aa3d fe6c 66bd
00000380: 3af0 433e 8bd2 183e e477 dd3e 0e63 c7bd
00000390: 9268 cf3e f070 1f3c 7bd4 10bf bf7c 963e
000003a0: 1cf2 f03c ee0d 14be efdb 04bd d9c1 c1bd
000003b0: e66f 073f e504 85be acd0 533e 8349 4fbc
000003c0: b73d 253f 62bc 05be 3741 1cbf 8816 703d
000003d0: bda4 63be 5313 89bd 5e0c b43e df59 01be
000003e0: 5bb9 a03d f1a8 9dbe faa8 77bb bec1 993e
000003f0: b015 923e 437f ad3e 64d1 f63e 593c 0b3e

network_body._body_endoder.seq_layers.0.bias f4 [128]
-0.03413111 -0.053340454 -0.016291529 0.008651731 0.053433742 0.03883946 -0.037964813 -0.0437168
0.06040763 0.07081808 0.052273534 0.05505917 0.06979115 0.057869032 0.06838712 0.06244213
0.047836743 0.0493592 0.09249535 0.059761018 0.06703882 0.024448209 0.043361343 0.050143432
0.06522343 0.008575026 -0.027753701 0.08087159 0.006799355 0.06973338 0.09042943 0.048256435
0.02193867 -0.055595033 0.03569928 -0.03667468 0.009972494 -0.0020924301 0.068991736 0.058781683
0.06576564 0.07342656 -0.015778396 0.023015516 0.07357381 0.057135303 -0.04113989 0.0005474503
-0.0011587344 0.023066727 0.05204966 0.050420895 0.040521238 -0.04126527 0.052967627 -0.009398508
0.05013086 0.078917064 -0.0024778114 0.034257356 0.08530452 0.08495151 0.075309835 0.06836674
0.04244518 0.04253019 0.0066116666 0.053934135 0.045967393 0.09073631 0.08681354 0.057142593
0.052632447 0.055725757 0.05854677 0.08217409 0.05861984 0.02503718 0.04753585 -0.024312798
0.04178753 -0.018786063 0.055871166 0.04658978 0.019239485 -0.01846609 0.05662734 -0.0063609686
-0.040099394 0.00022278079 -0.021306628 0.018398996 0.07240355 0.02558616 0.08395651 0.05242085
0.009963196 0.0240544 -0.056461085 0.032296166 0.106337175 0.054663837 -0.0032837978 0.025294764
0.030415334 0.03909725 0.06067815 -0.02661358 -0.035543207 0.03710275 0.0013943322 0.10593639
0.03957776 -0.0570683 0.025735585 -0.021544859 0.052953467 0.048696212 0.022039082 0.06217849
0.026792355 0.071366474 0.055623624 0.05662567 0.06616414 -0.047296662 0.0086663375 0.06251178
00000000: 10cd 0bbd 857b 5abd d075 85bc fdbf 0d3c
00000010: 57dd 5a3d 2016 1f3d fe80 1bbd 6310 33bd
00000020: fe6d 773d 1209 913d c61c 563d b985 613d
00000030: aaee 8e3d 1408 6d3d 8c0e 8c3d 52c3 7f3d
00000040: 76f0 433d df2c 4a3d 346e bd3d f8c7 743d
00000050: a64b 893d 9c47 c83c aa9b 313d 3363 4d3d
00000060: dd93 853d 447e 0c3c bb5b e3bc 01a0 a53d
00000070: 20cd de3b 60d0 8e3d 1133 b93d 8aa8 453d
00000080: bab8 b33c 9eb7 63bd 6939 123d 3038 16bd
00000090: ac63 233c 2721 09bb 8a4b 8d3d 10c5 703d
000000a0: 23b0 863d aa60 963d b241 81bc 098b bc3c
000000b0: dead 963d b506 6a3d 4d82 28bd c582 0f3a
000000c0: ade0 97ba 6ff6 bc3c 0632 553d 2486 4e3d
000000d0: 99f9 253d c605 29bd 95f4 583d 33fc 19bc
000000e0: 0456 4d3d 459f a13d c762 22bb 7151 0c3d
000000f0: 23b4 ae3d 0ffb ad3d 0b3c 9a3d dd03 8c3d
00000100: ffda 2d3d 2334 2e3d aea6 d83b 0aea 5c3d
00000110: 4e48 3c3d f5d3 b93d 4ccb b13d 5a0e 6a3d
00000120: 1f95 573d b140 643d bdce 6f3d e44a a83d
00000130: 5b1b 703d c61a cd3c f4b4 423d a22b c7bc
00000140: 6729 2b3d 3be5 99bc 2ad9 643d edd4 3e3d
00000150: 209c 9d3c 3346 97bc 12f2 673d ac6f d0bb
00000160: 433f 24bd 439a 6939 3d8b aebc 7eb9 963c
00000170: 5048 943d 119a d13c 64f1 ab3d 3fb7 563d
00000180: ac3c 233c bc0d c53c bd43 67bd fc48 043d
00000190: 4ec7 d93d 30e7 5f3d fc34 57bb f736 cf3c
000001a0: 9429 f93c 7024 203d a789 783d b904 dabc
000001b0: c195 11bd 0ef9 173d 06c2 b63a 2ef5 d83d
000001c0: 4a1c 223d 73c0 69bd 6fd3 d23c d87e b0bc
000001d0: bce5 583d ae75 473d 4e8b b43c dfae 7e3d
000001e0: a47b db3c 9628 923d 99d5 633d 52f0 673d
000001f0: 1181 873d 25ba 41bd 41fd 0d3c 2d06 803d

network_body._body_endoder.seq_layers.2.weight f4 [128, 128]
0.08445991 0.06246164 0.14994816 0.12713027 -0.090803996 0.21794647 -0.018533234 0.06814697
-0.09408339 0.06500157 0.05647597 0.018428883 0.022138419 -0.10252698 0.06309931 -0.054288913
0.11160639 -0.09683552 -0.01376681 -0.04666301 0.08467781 -0.16177261 0.1820102 0.07029206
-0.027292656 0.061256494 0.18850228 0.05445607 0.0060681514 -0.1053678 0.051172767 0.08937291
-0.07697874 -0.029299472 -0.042837624 0.216736 -0.09980978 -0.02092925 -0.007424936 -0.0892838
-0.08250223 -0.14086452 -0.0671878 -0.034786627 -0.03860724 -0.026422314 0.11252176 0.013599787
-0.118389204 -0.020789843 -0.2248043 0.1119541 -0.12405522 -0.04031224 -0.14851692 0.07814774
-0.096000396 -0.055327192 0.053648558 -0.032700483 -0.05736894 -0.12047053 0.10103079 0.09286113
-0.07980038 -0.024981318 -0.09814188 -0.17612198 -0.2611179 -0.100248426 -0.08596899 -0.07406161
-0.07759641 0.04762379 -0.024601879 -0.109957725 -0.25685647 0.13697635 0.044969324 0.16494614
0.022754468 -0.06911384 0.031515136 -0.035908125 0.076126255 -0.023047889 -0.011159596 0.009110089
0.06643419 0.030670904 -0.20580244 -0.083284244 -0.011043483 -0.08106511 -0.06585047 -0.026741097
0.050801158 -0.0042733504 -0.059601925 0.081404775 -0.13771215 -0.055886965 0.15443906 -0.12998696
-0.004890406 -0.21277355 -0.05558651 -0.0935021 0.025437005 0.04422656 0.040918723 0.08398621
-0.13597372 -0.057657853 0.119366735 -0.095739454 0.12241859 -0.054792944 -0.10143401 -0.0021599683
-0.065631606 -0.17752185 -0.09689857 0.011151021 -0.01864483 0.03236738 -0.14986813 0.03758781
-0.044092726 -0.054013506 0.06367233 0.17406191 0.08157858 0.05680631 0.14120719 0.058120117
-0.02392169 -0.09632216 0.059504136 -0.11676431 -0.049221266 0.007890093 0.07128343 -0.107578315
0.002676866 -0.042710535 0.046953302 -0.103267565 0.075574026 0.06261234 -0.08443714 -0.09421708
0.048033148 0.14087771 0.027647873 0.007969971 0.21896043 0.0121267075 -0.23927148 -0.009820857
0.017227147 -0.21509789 -0.0795113 -0.013603012 0.10747325 0.18362339 0.030898014 -0.059180066
-0.09593818 -0.054390073 0.10103062 -0.034645956 -0.045814846 -0.14560845 0.12956885 0.06970661
0.1182 0.04648723 0.056991693 0.019163104 0.10533028 0.0804077 0.05703198 -0.032140203
-0.01609879 0.043721057 0.1662475 0.095628336 -0.20571744 0.05791736 -0.14194866 -0.094414085
-0.01817535 -0.06843419 -0.0964779 -0.015151512 0.0281904 0.047625206 -0.0045669973 -0.041964047
0.16342036 -0.066127226 0.09338361 -0.112590596 -0.1578665 0.14412513 -0.100225255 -0.04030296
-0.04028301 0.014964781 -0.1610313 0.10548545 -0.10507825 0.021574803 -0.25054094 0.0031660139
-0.028558563 0.19198228 -0.03832968 -0.03991483 -0.09907803 -0.021668138 0.08394981 0.012099072
0.0003936896 -0.117461845 0.08156153 -0.16290842 -0.30330676 0.08989902 0.13032916 -0.20230065
-0.050576113 0.010971452 0.07997708 -0.05185113 0.20044729 -0.06687808 -0.06828016 -0.016012734
0.12436953 -0.08311699 0.0033588517 0.012630228 0.036046013 0.04567686 -0.12130032 -0.00015720057
0.062113702 -0.021173738 -0.07562315 0.03085993 -0.20502913 -0.10766251 0.01687296 -0.026248982
00000000: 51f9 ac3d c7d7 7f3d 038c 193e 702e 023e
00000010: 72f7 b9bd 5c2d 5f3e 02d3 97bc a390 8b3d
00000020: cbae c0bd 8b1f 853d 5953 673d 2bf8 963c
00000030: a15b b53c aaf9 d1bd 363a 813d 0d5e 5ebd
00000040: e491 e43d b351 c6bd 308e 61bc b621 3fbd
00000050: 8f6b ad3d b8a7 25be e260 3a3e 49f5 8f3d
00000060: d994 dfbc 17e8 7a3d be06 413e 540d 5f3d
00000070: 58d7 c63b 13cb d7bd 899a 513d 2509 b73d
00000080: 08a7 9dbd 7205 f0bc 8176 2fbd 0bf0 5d3e
00000090: 1269 ccbd d273 abbc e14c f3bb 6dda b6bd
000000a0: eef6 a8bd ca3e 10be c299 89bd 6c7c 0ebd
000000b0: a022 1ebd 9c73 d8bc cf71 e63d a4d1 5e3c
000000c0: 0a76 f2bd 764f aabc 1933 66be 3148 e53d
000000d0: aa10 febd 731e 25bd d214 18be ec0b a03d
000000e0: db9b c4bd c49e 62bd 97be 5b3d f1f0 05bd
000000f0: b2fb 6abd 41b9 f6bd 3be9 ce3d fa2d be3d
00000100: 626e a3bd 9fa5 ccbc 9cfe c8bd 5259 34be
00000110: 3fb1 85be 0c4f cdbd 8310 b0bd 9dad 97bd
00000120: deea 9ebd 2a11 433d e189 c9bc 8431 e1bd
00000130: b182 83be 8743 0c3e c131 383d a4e7 283e
00000140: 9467 ba3c 8f8b 8dbd 0416 013d 6614 13bd
00000150: 15e8 9b3d edce bcbc bdd6 36bc 7c42 153c
00000160: a60e 883d 8c41 fb3c e0bd 52be ee90 aabd
00000170: baef 34bc 7705 a6bd 9cdc 86bd 2510 dbbc
00000180: e014 503d 7607 8cbb 2621 74bd 8cb7 a63d
00000190: 6a04 0dbe bbe9 64bd 4625 1e3e 4d1b 05be
000001a0: b33f a0bb 4fe1 59be aeae 63bd 077e bfbd
000001b0: 4461 d03c e926 353d 649a 273d f600 ac3d
000001c0: b23c 0bbe a42a 6cbd 8c76 f43d 0c13 c4bd
000001d0: 99b6 fa3d 916e 60bd a2bc cfbd 418e 0dbb
000001e0: dd69 86bd 4ac8 35be c272 c6bd c6b2 363c
000001f0: 0bbd 98bc a893 043d 0877 19be adf5 193d
00000200: 939a 34bd 443d 5dbd a366 823d 493d 323e
00000210: ac12 a73d bcad 683d 9e98 103e 5c0f 6e3d
00000220: 6cf7 c3bc 8d44 c5bd 9cba 733d 2022 efbd
00000230: 3d9c 49bd 7345 013c 0cfd 913d 0552 dcbd
00000240: 5c6e 2f3b 3ef1 2ebd 1b52 403d f27d d3bd
00000250: 8ec6 9a3d e63a 803d 61ed acbd e2f4 c0bd
00000260: 68be 443d 3f42 103e cb7d e23c 7b94 023c
00000270: 2a37 603e 19af 463c 9503 75be a9e7 20bc
00000280: f21f 8d3c 9f42 5cbe d2d6 a2bd 2bdf 5ebc
00000290: ef1a dc3d c507 3c3e d51d fd3c cc66 72bd
000002a0: 3d7b c4bd 20c8 5ebd 24e9 ce3d ebe8 0dbd
000002b0: 59a8 3bbd 621a 15be b2ad 043e 57c2 8e3d
000002c0: d712 f23d 6569 3e3d 1f70 693d f1fb 9c3c
000002d0: 67b7 d73d cbac a43d 5e9a 693d 72a5 03bd
000002e0: 9ce1 83bc da14 333d c93c 2a3e cad8 c33d
000002f0: 98a7 52be c13a 6d3d fd5a 11be 2c5c c1bd
00000300: 79e4 94bc 3927 8cbd 3596 c5bd 0c3e 78bc
00000310: 8eef e63c a612 433d c0a6 95bb 7ee2 2bbd
00000320: ab57 273e b66d 87bd e83f bf3d e695 e6bd
00000330: c1a7 21be 8a95 133e e642 cdbd b714 25bd
00000340: ccff 24bd d72e 753c 64e5 24be c108 d83d
00000350: 4433 d7bd a4bd b03c e746 80be e67c 4f3b
00000360: a6f3 e9bc 0197 443e 95ff 1cbd bc7d 23bd
00000370: 6ce9 cabd 6181 b1bc e1ed ab3d 303b 463c
00000380: 2068 ce39 d68f f0bd bb09 a73d 77d1 26be
00000390: 064b 9bbe fa1c b83d 0275 053e e727 4fbe
000003a0: e628 4fbd 9bc1 333c 06cb a33d da61 54bd
000003b0: 0e42 4d3e 60f7 88bd 78d6 8bbd 232d 83bc
000003c0: 74b5 fe3d 3e39 aabd 2e20 5c3b 04ef 4e3c
000003d0: fca4 133d a917 3b3d 4d6c f8bd 35d6 24b9
000003e0: f06a 7e3d 8c74 adbc 4fe0 9abd f7cd fc3c
000003f0: 28f3 51be 297e dcbd 2939 8a3c 1b08 d7bc

network_body._body_endoder.seq_layers.2.bias f4 [128]
-0.058207694 -0.02013157 -0.03742721 0.0025025029 0.014134106 0.06629595 -0.059718974 -0.01667158
0.048721213 0.054723 0.03990683 0.07724559 0.0036345187 -0.00025243257 0.044613868 -0.026953056
0.0607359 0.009969895 0.0485645 0.05531277 -0.05021334 -0.025872651 -0.03751589 0.042165976
0.042100765 -0.03991256 -0.03782208 0.061718304 0.020041307 0.043548275 -0.0022310468 0.026373032
0.076019555 0.023703584 0.06747875 0.07471513 0.07857545 0.030348616 0.06411755 -0.014873972
0.05820792 0.06708964 0.077912614 -0.026541624 0.041915305 0.00916864 -0.048385862 0.06416807
0.073456585 0.047737718 0.06256898 0.05270226 -0.050582748 -0.0418322 0.018524436 0.08428524
0.0822834 -0.0013945231 -0.0152163105 -0.0123271495 -0.056363314 0.07262167 0.055733886 0.048819892
-0.030850515 0.046499744 0.04851504 0.059134293 0.05348371 0.0679262 0.0741673 -0.041557666
0.03104233 0.055507574 -0.041174576 -0.032516826 0.04706992 0.047525123 0.055621892 0.012210176
-0.03293191 -0.03759539 0.03861776 0.044260044 0.07158963 -0.018341465 -0.046995867 0.086619295
-0.014234979 0.0655528 0.066480756 0.03719182 0.07282751 0.03364869 0.03811905 0.022351356
0.015325622 0.025289686 -0.017675092 0.020514764 0.07867456 0.0044779587 -0.044667613 0.05965608
-0.031979218 0.007858887 -0.04867683 -0.010248131 -0.043180544 0.05093969 0.04906733 0.07879482
-0.05751372 -0.026535304 0.041544497 0.043421376 0.061082803 -0.034824025 0.021030378 -0.007981796
0.054091852 -0.05134605 -0.015100499 0.023173718 0.072539926 0.051653482 -0.018922225 0.0636104
00000000: 316b 6ebd f6ea a4bc 464d 19bd 0801 243b
00000010: bd92 673c 2cc6 873d e29b 74bd d692 88bc
00000020: e58f 473d 3925 603d 5875 233d f032 9e3d
00000030: 1b31 6e3b ed58 84b9 08bd 363d a8cc dcbc
00000040: 35c6 783d c558 233c 92eb 463d a58f 623d
00000050: 81ac 4dbd e2f2 d3bc 43aa 19bd 3bb6 2c3d
00000060: da71 2c3d 5a7b 23bd 53eb 1abd 55cc 7c3d
00000070: ab2d a43c ad5f 323d c136 12bb 420c d83c
00000080: 24b0 9b3d 052e c23c 4d32 8a3d 3f04 993d
00000090: 2aec a03d a99d f83c 1050 833d f6b1 73bc
000000a0: 6e6b 6e3d 4b66 893d a690 9f3d d26d d9bc
000000b0: 62af 2b3d 1038 163c 4130 46bd 8d6a 833d
000000c0: 6870 963d a088 433d 2a24 803d 53de 573d
000000d0: db2f 4fbd 3e58 2bbd 8fc0 973c bd9d ac3d
000000e0: 3384 a83d 6ec8 b6ba d54d 79bc d0f7 49bc
000000f0: 38dd 66bd acba 943d 3749 643d 5ef7 473d
00000100: 38ba fcbc 8476 3e3d b5b7 463d cd36 723d
00000110: bc11 5b3d e41c 8b3d 06e5 973d 5f38 2abd
00000120: 7c4c fe3c e95b 633d aca6 28bd 5d30 05bd
00000130: 63cc 403d b4a9 423d c8d3 633d 310d 483c
00000140: 9ce3 06bd a0fd 19bd a82d 1e3d 054a 353d
00000150: 959d 923d d740 96bc bd7e 40bd 7565 b13d
00000160: d439 69bc 8c40 863d 1027 883d 7356 183d
00000170: 9726 953d 35d3 093d b922 1c3d 311a b73c
00000180: 5118 7b3c 512c cf3c 5bcb 90bc 940e a83c
00000190: 2120 a13d d7bb 923b 63f5 36bd ef59 743d
000001a0: a4fc 02bd 90c2 003c 5b61 47bd c7e7 27bc
000001b0: 15de 30bd 23a6 503d d3fa 483d 2e5f a13d
000001c0: 8293 6bbd 9160 d9bc 902a 2a3d 9dda 313d
000001d0: f631 7a3d a3a3 0ebd e647 ac3c 14c6 02bc
000001e0: 6b8f 5d3d 3c50 52bd 1568 77bc cfd6 bd3c
000001f0: d08f 943d 9a92 533d c802 9bbc 2b46 823d

action_model._continuous_distribution.log_sigma f4 [1, 2]
-0.03865271 -0.059563946
00000000: 4e52 1ebd 53f9 73bd

action_model._continuous_distribution.mu.weight f4 [2, 128]
-0.0002569176 0.037229527 -0.02016858 -0.045478053 -0.09447355 0.024283309 -0.0075509497 0.02453242
-0.04601408 0.06870089 0.051432382 0.024656275 -0.05274777 -0.05555534 0.052957773 0.050187163
-0.006784196 -0.06087062 -0.07974144 0.012234031 -0.000329966 -0.024398591 -6.3287716e-06 0.083541766
0.06519885 0.020588359 0.025507888 0.09008048 -0.06807876 -0.058647543 0.042039752 0.028569527
-0.0040418217 -0.0533498 -0.016380847 0.03579288 -0.0682762 0.039263677 -0.058385976 0.048349634
-0.056658424 0.057267826 -0.06526742 0.018667154 -0.058885023 0.045022357 -0.007755219 -0.0016136033
0.011185123 0.060451556 -0.021510784 0.04165583 -0.008577388 0.01842971 -0.044831015 0.014068286
0.049051344 -0.06909032 0.029541552 -0.048730027 0.009175862 -0.037051648 -0.061990585 0.018067801
0.02706435 0.046179354 0.041478883 0.013752563 -0.07409141 0.053438906 -0.037717983 -0.018311212
-0.01612042 0.03619154 0.036606647 -0.009095885 -0.0542177 -0.035255514 0.042334884 0.05937595
0.033209667 0.020447362 -0.025032686 0.06840597 -0.09146049 -0.029401498 -0.009014824 -0.05817597
0.07925545 0.011968959 -0.08529027 0.02838187 -0.062817216 0.069402024 0.064553596 -0.013072665
0.08355651 -0.07102966 0.05118784 -0.06969328 0.037040852 0.05967131 0.014784125 -0.0558622
0.006160777 -0.083418556 0.011981839 -0.017030044 0.03093449 0.055888295 -0.030004099 -0.036156233
0.024795914 -0.023142861 -0.056595776 0.020313904 -0.08620161 -0.02451445 0.0898506 -0.07494616
0.0098114 -0.009183006 0.060446944 -0.061366647 -0.05893865 -0.045352552 0.0757545 0.020109616
0.06279294 0.074604146 0.033789676 0.0069074333 0.07243163 -0.083224505 0.044385403 0.012834185
-0.03320113 -0.05211784 -0.03991322 -0.07426425 0.016909681 0.024467649 -0.06340929 0.0800261
-0.039481908 0.009189923 0.0004928202 -0.045443032 0.04334948 0.034982473 0.07738027 -0.048919994
-0.05275255 0.08607464 0.044222638 -0.09492008 0.025454324 -0.015430318 -0.01944616 -0.017575346
-0.06622852 -0.016872408 -0.065945104 -0.082762524 -0.054177895 -0.037678283 -0.047045838 0.0626033
-0.036670856 -0.06922671 -0.07466607 -0.004210852 -0.021467358 -0.009935284 0.062974 -0.060618035
-0.055040125 -0.021885596 -0.055385508 -0.052760288 0.041834146 0.033851072 -0.0072784335 -0.08805161
-0.098083004 0.033405185 0.0007508469 0.033771433 0.054915868 -0.06440265 -0.037385914 -0.036068883
0.019570375 -0.043098155 -0.04707619 -0.057838015 0.007999715 -0.0544967 -0.046616267 0.040754613
-0.017429596 -0.048967082 0.044668805 0.10725076 -0.011192975 -0.03608927 -0.08146093 0.006877732
0.04704131 0.07395693 -0.02058192 -0.04958479 -0.038796272 0.038823735 0.01889292 -0.061157137
0.034368224 -0.04832143 -0.03842912 -0.03518241 -0.039546482 -0.017376974 -0.03694413 -0.02179659
0.0027101068 0.016466144 0.06776128 0.035283376 -0.086122096 -0.00019922468 0.06144105 -0.042303246
0.0996778 0.045908254 0.07204511 0.084060855 0.06621016 -0.0483726 -0.028087074 -0.07206125
0.05749887 0.12355311 -0.036853496 -0.027603986 -0.03417937 0.02541135 0.033967942 0.04841643
-0.054797024 0.05533984 0.04100769 -0.0035842801 -0.08863256 -0.038524643 0.0469647 -0.064477935
00000000: e6b2 86b9 fd7d 183d 9438 a5bc 3247 3abd
00000010: 597b c1bd caed c63c f56d f7bb 37f8 c83c
00000020: 4379 3cbd 0db3 8c3d c3aa 523d f5fb c93c
00000030: 0c0e 58bd ff8d 63bd 40ea 583d 0e91 4d3d
00000040: f64d debb 7953 79bd 7b4f a3bd 3f71 483c
00000050: 49ff acb9 8edf c7bc bc5b d4b6 f217 ab3d
00000060: fa86 853d eba8 a83c ebf5 d03c 1d7c b83d
00000070: e06c 8bbd 6838 70bd e031 2c3d a40a ea3c
00000080: 4271 84bb 5285 5abd 2031 86bc 8e9b 123d
00000090: 64d4 8bbd f3d2 203d 2226 6fbd 440a 463d
000000a0: aa12 68bd ab91 6a3d edaa 85bd dceb 983c
000000b0: 6c31 71bd 5d69 383d 7e1f febb 8b7f d3ba
000000c0: ce41 373c 0d9c 773d 6237 b0bc 4e9f 2a3d
000000d0: 2c88 0cbc e7f9 963c baa0 37bd ab7e 663c
000000e0: 10ea 483d 3a7f 8dbd 2001 f23c 2399 47bd
000000f0: 5b56 163c 78c3 17bd d7e9 7dbd ed02 943c
00000100: 0eb6 dd3c 9026 3d3d c3e5 293d 6e52 613c
00000110: 3dbd 97bd c1e2 5a3d 2c7e 1abd 6501 96bc
00000120: f90e 84bc 953d 143d daf0 153d e806 15bc
00000130: 6113 5ebd 1668 10bd 5867 2d3d 3234 733d
00000140: dc06 083d 3a81 a73c 5911 cdbc 6e18 8c3d
00000150: a34f bbbd 69db f0bc eab2 13bc ed49 6ebd
00000160: ae50 a23d 7419 443c aaac aebd 1881 e83c
00000170: 50a6 80bd a622 8e3d ad34 843d bb2e 56bc
00000180: ad1f ab3d 0078 91bd 57aa 513d 5abb 8ebd
00000190: 26b8 173d e769 743d 1d39 723c c3cf 64bd
000001a0: 58e0 c93b 59d7 aabd 7a4f 443c 9782 8bbc
000001b0: 546a fd3c 20eb 643d 28cb f5bc 8f18 14bd
000001c0: cd20 cb3c 1996 bdbc f9d0 67bd 5869 a63c
000001d0: 788a b0bd 87d2 c8bc 9703 b83d 5f7d 99bd
000001e0: ffbf 203c 5274 16bc 3797 773d 985b 7bbd
000001f0: a769 71bd 99c3 39bd 2d25 9b3d ecbc a43c
00000200: 9699 803d 0fca 983d 0b67 0a3d c057 e23b
00000210: 0957 943d 9c71 aabd 78cd 353d 7946 523c
00000220: e8fd 07bd 8479 55bd 0b7c 23bd db17 98bd
00000230: 2c86 8a3c 6170 c83c bbdc 81bd b9e4 a33d
00000240: c8b7 21bd 5591 163c 9b30 013a 7922 3abd
00000250: 398f 313d c849 0f3d 8c79 9e3d 5560 48bd
00000260: 0f13 58bd e747 b03d cc22 353d 7565 c2bd
00000270: 9685 d03c 72cf 7cbc 8e4d 9fbc 2cfa 8fbc
00000280: d1a2 87bd 0138 8abc 3a0e 87bd 667f a9bd
00000290: a4e9 5dbd 8b54 1abd 23b3 40bd 2936 803d
000002a0: 2e34 16bd bcc6 8dbd 86ea 98bd 30fb 89bb
000002b0: 50dc afbc 9ac7 22bc 83f8 803d 9e4a 78bd
000002c0: c171 61bd 6c49 b3bc eadb 62bd 2c1b 58bd
000002d0: 485a 2b3d 6ca7 0a3d ed7f eebb 6754 b4bd
000002e0: bedf c8bd e0d3 083d 7cd4 443a ea53 0a3d
000002f0: 76ef 603d 89e5 83bd f921 19bd f7bc 13bd
00000300: 0d52 a03c b187 30bd f7d2 40bd 8ee7 6cbd
00000310: 3d11 033c ef37 5fbd b3f0 3ebd 4fee 263d
00000320: 83c8 8ebc b591 48bd a3f6 363d 49a6 db3d
00000330: bd62 37bc 58d2 13bd fdd4 a6bd 995e e13b
00000340: 64ae 403d bb76 973d 6a9b a8bc 6c19 4bbd
00000350: d7e8 1ebd a305 1f3d 53c5 9a3c e87f 7abd
00000360: b2c5 0c3d b1ec 45bd da67 1dbd 6e1b 10bd
00000370: 7efb 21bd 285a 8ebc ba52 17bd c38e b2bc
00000380: 0c9c 313b 02e4 863c 6dc6 8a3d 4d85 103d
00000390: c860 b0bd f8e6 50b9 9ca9 7b3d 2b46 2dbd
000003a0: e023 cc3d 4b0a 3c3d 638c 933d 1928 ac3d
000003b0: 3199 873d 5922 46bd dd16 e6bc d994 93bd
000003c0: ef83 6b3d 6a09 fd3d b1f3 16bd c121 e2bc
000003d0: abff 0bbd 772b d03c f821 0b3d 4e50 463d
000003e0: d872 60bd 07ac 623d aef7 273d 3ee6 6abb
000003f0: fd84 b5bd 04cc 1dbd 0f5e 403d 020d 84bd

action_model._continuous_distribution.mu.bias f4 [2]
-0.008904186 -0.05886352
00000000: dde2 11bc e01a 71bd

onnx::Div_51 f4 [12]
0.57503784 0.42573106 0.35537654 0.0881845 0.076195866 0.70958954 0.6191604 0.3612715
0.7171437 0.6176597 0.35940284 0.706333
00000000: ae35 133f 6cf9 d93e eaf3 b53e 139a b43d
00000010: 940c 9c3d a9a7 353f 4c81 1e3f 94f8 b83e
00000020: bb96 373f f21e 1e3f a603 b83e 3dd2 343f
